autoencoder.pth (torch, 193415 bytes, 12 tensors)

encoder.0.weight f4 [16, 3, 3, 3]
0.03326937 -0.13274269 -0.017628958 -0.063808985 -0.3719407 -0.15148129 -0.040978357 -0.28935945
-0.106641434 -0.013432245 0.04068742 0.012210667 0.06241321 -0.041886598 0.075115904 0.05031093
-0.015643328 0.056669585 0.023712344 -0.031560034 0.028819285 -0.036452234 -0.13452077 -0.01645054
-0.023306945 -0.10742385 -0.021702088 -0.06129741 0.028499078 -0.101183064 0.037037708 0.09008998
0.047905453 -0.029988762 0.023769965 -0.06894399 0.06900962 9.400232e-06 0.01863629 -0.03549947
-0.002107286 0.0028052076 -0.014691489 -0.09904756 0.1740973 -0.008760381 -0.022342483 -0.046015088
-0.01654954 -0.008526949 -0.006413058 -0.03579795 -0.042184018 0.0048984806 0.09176601 -0.0787838
0.012475568 -0.052476637 -0.11841225 0.0017068321 0.0046845567 -0.08327596 0.0023631984 -0.10459869
0.04787081 0.008864704 0.1256889 0.27669984 0.28100908 0.09386608 0.31298605 0.30837926
-0.0378812 -0.035134517 0.012208095 -0.042409822 0.0034765904 0.052620362 -0.012819277 0.0069654253
0.051109124 -0.026216157 0.03514861 -0.05239769 0.047873247 0.08292105 0.0058297785 -0.015091674
0.06635817 -0.12889287 0.023055308 0.0028684977 0.06723013 -0.029321479 -0.08254724 -0.09408455
0.014214142 -0.04241091 0.1610098 -0.0062470273 -0.008800052 -0.011517669 -0.0020980122 -0.0281035
-0.04238988 0.00032681396 0.0034082264 0.007863585 -0.024538524 -0.0010710313 0.034523264 0.017174631
0.014458254 0.026285406 0.015161732 0.060972925 -0.04908027 0.029521206 -0.05219727 -0.00092659896
-0.034804594 -0.06339394 -0.01337102 -0.014396259 0.01261567 0.010399467 -0.00030450008 -0.018590512
-0.0018221658 0.008101249 -0.0066216933 0.018862592 0.0018736686 0.022943312 -0.005704616 -0.04260936
-0.05147044 -0.09047507 -0.02946484 -0.10658709 -0.124237046 0.0019966515 -0.023654537 -0.016630841
0.054044105 -0.2745945 0.033217564 0.059574414 0.07928615 -0.023924507 -0.031999767 0.009128482
0.003486815 -0.03427286 -0.1165169 -0.0059949015 0.026870271 -0.06702331 0.013521828 0.023097593
0.018646475 0.05601438 0.026898613 -0.03553531 -0.13154355 -0.06152794 -0.031060696 -0.22413366
0.027653158 -0.017072635 -0.060082696 -0.0178239 0.09032139 0.012128712 0.0413031 0.28529206
-0.006645138 -0.043992855 0.2998173 0.008414629 -0.048097983 -0.060295474 -0.08423202 -0.12264577
-0.06651107 -0.1917298 -0.10003821 -0.060517564 -0.13805494 0.10867744 -0.21987705 0.16917105
0.056782153 0.21488221 0.59580165 0.14589715 -0.17272227 0.31058583 -0.04408686 0.14473182
0.18000095 -0.07702824 0.044343952 0.55872285 -0.060486298 -0.04787923 -0.043343525 -0.123819776
-0.06771007 -0.14791168 -0.00922282 0.17413063 0.3166623 -0.017539363 0.017380109 0.014723071
-0.0152921 0.037710052 0.049783964 0.020496141 -0.027669214 -0.09843028 0.03180829 0.020075321
-0.013923477 0.0146318255 -0.047337677 -0.05269975 -0.01438624 0.013023122 0.040593892 -0.057448067
-0.08465665 -0.18487181 -0.023207774 0.039103873 -0.022279436 0.017501218 -0.0029184108 -0.12653041
0.014846638 0.03171757 -0.21838301 -0.02723343 -0.020112095 -0.024709972 0.0074297064 -0.06660501
0.0094843125 -0.049888864 -0.074133895 -0.10955494 0.018122386 -0.0033452918 0.026104495 -0.008775787
00000000: 7745 083d b3ed 07be 9b6a 90bc 49ae 82bd
00000010: 036f bebe e91d 1bbe ecd8 27bd ec26 94be
00000020: d366 dabd eb12 5cbc daa7 263d 400f 483c
00000030: fea4 7f3d 4891 2bbd 5ed6 993d d512 4e3d
00000040: 7026 80bc 5e1e 683d 6440 c23c 1845 01bd
00000050: 6c16 ec3c f04e 15bd d0bf 09be 48c3 86bc
00000060: 35ee bebc 0901 dcbd 94c8 b1bc fe12 7bbd
00000070: e676 e93c 1139 cfbd dab4 173d 1881 b83d
00000080: 8238 443d feaa f5bc 3bb9 c23c 8232 8dbd
00000090: ea54 8d3d b0b5 1d37 22ab 983c e467 11bd
000000a0: 641a 0abb 93d7 373b 92b4 70bc 72d9 cabd
000000b0: 9046 323e b387 0fbc 9507 b7bc 517a 3cbd
000000c0: e792 87bc 9eb4 0bbc a124 d2bb dfa0 12bd
000000d0: 26c9 2cbd 6f83 a03b d1ef bb3d 6759 a1bd
000000e0: 5366 4c3c bef1 56bd 1f82 f2bd c8b7 df3a
000000f0: e980 993b 968c aabd e4df 1a3b d737 d6bd
00000100: 2f14 443d 433d 113c 97b4 003e 9aab 8d3e
00000110: 6ce0 8f3e dc3c c03d b53f a03e e3e3 9d3e
00000120: 5129 1bbd 36e9 0fbd 7604 483c ecb5 2dbd
00000130: 82d7 633b 7388 573d f207 52bc 393e e43b
00000140: cd57 513d 44c3 d6bc fdf7 0f3d f69e 56bd
00000150: bd16 443d 83d2 a93d ba07 bf3b 1243 77bc
00000160: cbe6 873d 7efc 03be 7cde bc3c 68fd 3b3b
00000170: f3af 893d 9933 f0bc 870e a9bd 67af c0bd
00000180: 6fe2 683c 10b7 2dbd c1df 243e ddb3 ccbb
00000190: 182e 10bc 9bb4 3cbc ce7e 09bb 5039 e6bc
000001a0: 03a1 2dbd 3a58 ab39 8d5c 5f3b 44d6 003c
000001b0: 0405 c9bc d961 8cba 4468 0d3d d0b1 8c3c
000001c0: 50e2 6c3c 7e54 d73c ea68 783c bfbe 793d
000001d0: 6508 49bd 75d6 f13c cecc 55bd 01e7 72ba
000001e0: 438f 0ebd afd4 81bd 1f12 5bbc 49de 6bbc
000001f0: f5b1 4e3c 8762 2a3c 4fa5 9fb9 214b 98bc
00000200: bdd5 eeba 1abb 043c cafa d8bb b985 9a3c
00000210: e395 f53a 9df3 bb3c caed babb 2787 2ebd
00000220: abd2 52bd fe4a b9bd 4060 f1bc 554a dabd
00000230: fe6f febd 41da 023b 29c7 c1bc 673d 88bc
00000240: 5a5d 5d3d a697 8cbe 240f 083d 4d04 743d
00000250: c760 a23d 54fd c3bc 3012 03bd a18f 153c
00000260: 0c83 643b b361 0cbd 6aa0 eebd e170 c4bb
00000270: 0b1f dc3c 8443 89bd a88a 5d3c 2a37 bd3c
00000280: 7ec0 983c 566f 653d 7b5a dc3c 798d 11bd
00000290: 5ab3 06be b904 7cbd 0073 febc 4b83 65be
000002a0: e088 e23c e9db 8bbc 4619 76bd 6d03 92bc
000002b0: 6cfa b83d 81b7 463c 702d 293d cd11 923e
000002c0: 75bf d9bb da31 34bd a781 993e 83dd 093c
000002d0: 6402 45bd 63f8 76bd d681 acbd b52d fbbd
000002e0: f536 88bd d154 44be d5e0 ccbd 44e1 77bd
000002f0: 465e 0dbe 4792 de3d 7327 61be 2d3b 2d3e
00000300: 6794 683d 150a 5c3e 7586 183f 1066 153e
00000310: 1bde 30be 1b05 9f3e 6c94 34bd 9434 143e
00000320: 2b52 383e fbc0 9dbd 01a2 353d 7608 0f3f
00000330: 7bc0 77bd 031d 44bd fb88 31bd 3995 fdbd
00000340: 94ab 8abd 2976 17be 501b 17bc 4d4f 323e
00000350: 9021 a23e b6ae 8fbc bb60 8e3c 0939 713c
00000360: b78b 7abc db75 1a3d 45ea 4b3d 86e7 a73c
00000370: 8caa e2bc d195 c9bd 6949 023d 0075 a43c
00000380: 4c1f 64bc 53ba 6f3c 27e5 41bd b1db 57bd
00000390: 44b4 6bbc ef5e 553c c845 263d aa4e 6bbd
000003a0: 7760 adbd 094f 3dbe 3b1e bebc 622b 203d
000003b0: 5d83 b6bc b75e 8f3c cf42 3fbb 3091 01be
000003c0: 503f 733c 48ea 013d cc9f 5fbe a418 dfbc
000003d0: 1fc2 a4bc 916c cabc e574 f33b 3568 88bd
000003e0: 1764 1b3c 4458 4cbd 83d3 97bd 575e e0bd
000003f0: 6675 943c af3c 5bbb 18d9 d53c 52c8 0fbc

encoder.0.bias f4 [16]
1.2504034 0.17411466 0.0028089767 0.09178479 0.026518662 0.18613856 0.85732013 -1.8218926
0.19574165 0.4847865 0.35846224 -0.06866837 0.84722793 0.31324035 -0.17274141 0.27681598
00000000: 380d a03f 1d4b 323e cf16 383b aaf9 bb3d
00000010: aa3d d93c 1b9b 3e3e 5579 5b3f c733 e9bf
00000020: 8070 483e f035 f83e 5d88 b73e 01a2 8cbd
00000030: eee3 583f 0a61 a03e 20e3 30be d3ba 8d3e

encoder.2.weight f4 [32, 16, 3, 3]
-0.039018456 -0.11897939 -0.014612818 0.02554199 0.043551385 0.040520225 -0.14784515 -0.024693469
0.21947877 0.2002815 0.23442782 -0.14218585 -0.02546128 0.29089883 -0.3804133 0.025882436
0.115234286 -0.4426408 0.08323218 0.08384035 -0.13778837 0.09890931 0.47822353 0.30107287
-0.03804844 0.19971779 0.09906984 0.1485799 -0.3904491 -0.3260231 0.41716936 0.50453484
0.06698848 0.123936445 0.3432785 -0.5443419 0.34745023 0.56168777 0.4958027 0.47024748
-0.236495 -0.2782454 0.22906321 -0.5672509 -0.92084056 -0.12730259 -0.1562892 -0.13953328
-0.06075206 -0.32764348 -0.5368365 -0.2784052 -0.14072613 -0.37441438 -0.10854951 -0.08374184
-0.09655678 -0.15466519 -0.063298136 0.11349506 -0.15730494 -0.15639925 0.032598928 -0.020940816
-0.08537267 0.004412957 -0.051241312 -0.086371124 -0.045500785 -0.1117239 0.23427474 -0.059525847
0.30856258 0.36138925 0.41891128 0.25866768 0.5253846 0.37852725 0.3306145 0.25129512
0.04765293 -0.06477756 0.110848114 -0.110888936 0.08924505 0.420761 0.22142863 0.09648913
-0.11941537 -0.16360486 -0.006794719 0.3049886 0.40136158 0.12460152 0.21705489 0.8239334
0.02504623 0.20988351 0.7514421 -0.009137295 -0.04154089 0.015220024 0.052534427 -0.008915357
0.053648207 0.067704655 -0.006710671 -0.069015846 -0.0046713846 -0.12879795 -0.26330987 -0.2256482
-0.0021756066 -0.0057635373 -0.11422857 -0.025525238 -0.27870208 0.13216864 0.23915035 0.25924224
0.1702707 -0.0724558 0.13242751 0.256481 0.07931936 -0.21271038 -0.04209427 0.09794838
-0.0387701 0.11331431 0.13953662 0.06854815 0.045244083 0.040918425 0.016938329 0.08277791
-0.2748314 -0.24331863 0.2728553 -0.33203042 -0.007363847 -0.041896135 -0.11954408 -0.24115963
-0.019100497 -1.0097024 -0.06911404 -0.11536671 0.507485 0.14290348 0.042672455 0.0262183
-0.054005936 0.26454148 -0.32269245 0.06740824 0.5499072 0.8031189 0.48391157 -0.54738265
-0.69430554 -0.4349264 0.05714888 0.26514494 0.042904645 0.075150445 -0.004533169 -0.0863579
-0.088208266 -0.1893595 0.08114205 -0.55923873 -1.0749248 -0.23679237 0.6142415 0.5656656
-0.32324484 0.456973 0.5298208 0.23884368 0.008215589 -1.1312197 -0.12917817 -0.79279214
1.4526289 0.77699786 0.10792006 -0.21629061 0.0073487656 0.02890035 0.3835476 -0.3054468
0.64321554 -0.7393722 -0.3162953 -0.0048265383 -0.28500056 0.041074574 -0.22359122 0.4438095
0.030956533 0.150704 0.22108272 0.21270011 0.032763444 0.054127097 -0.1433776 -0.08814718
-0.110609956 0.008024888 -0.06642893 -0.092245795 0.047425054 0.061980214 0.11705617 -0.02637157
-0.05994767 -0.36912742 0.03237101 -0.10615344 0.14443392 -0.040976033 -0.0049673906 -0.006393282
0.0054995986 0.094348416 -0.26436603 0.12175239 0.19763201 -0.074879244 -0.18257973 -0.036290936
-0.022161966 0.06309171 0.061701972 -0.21479644 -0.1627671 -0.1565564 -0.025864711 0.39393288
0.066260286 -0.22488615 -0.35539955 -0.0018919706 0.0069888458 0.058626436 -0.037555523 0.008439563
-0.068929836 0.06497618 0.033498816 0.03380225 0.038789053 0.05897364 -0.05733935 -0.0589432
00000000: d1d1 1fbd 77ab f3bd 9a6a 6fbc 6f3d d13c
00000010: f062 323d 89f8 253d b864 17be f549 cabc
00000020: 0bbf 603e 9816 4d3e d90d 703e 2b99 11be
00000030: 2d94 d0bc b1f0 943e 88c5 c2be 6707 d43c
00000040: f4ff eb3d d1a1 e2be a275 aa3d 7db4 ab3d
00000050: 6518 0dbe f790 ca3d b7d9 f43e 3926 9a3e
00000060: aed8 1bbd d282 4c3e 21e5 ca3d 5425 183e
00000070: f2e8 c7be 80ec a6be 3997 d53e 3229 013f
00000080: 4231 893d 64d2 fd3d 33c2 af3e fe59 0bbf
00000090: ffe4 b13e c5ca 0f3f dad9 fd3e 47c4 f03e
000000a0: bf2b 72be 2e76 8ebe 8c8f 6a3e 5b37 11bf
000000b0: 35bc 6bbf 9c5b 02be 470a 20be d0e1 0ebe
000000c0: 27d7 78bd e3c0 a7be 1e6e 09bf 208b 8ebe
000000d0: 831a 10be 3eb3 bfbe 354f debd d880 abbd
000000e0: 90bf c5bd 8d60 1ebe 74a2 81bd 1970 e83d
000000f0: 8c14 21be 2027 20be 7486 053d 138c abbc
00000100: ded7 aebd 919a 903b 69e2 51bd 58e3 b0bd
00000110: 085f 3abd 80cf e4bd b8e5 6f3e 60d1 73bd
00000120: eafb 9d3e 0308 b93e 8a7b d63e 1770 843e
00000130: 9b7f 063f 53ce c13e 4e46 a93e c1a9 803e
00000140: b82f 433d 19aa 84bd 5604 e33d bd19 e3bd
00000150: 1cc6 b63d fc6d d73e 30be 623e 189c c53d
00000160: 0c90 f4bd 0888 27be 3ca6 debb 7727 9c3e
00000170: 447f cd3e 152f ff3d a343 5e3e 4ded 523f
00000180: c02d cd3c b4eb 563e 825e 403f 98b4 15bc
00000190: c826 2abd 685d 793c 572e 573d b811 12bc
000001a0: 39be 5b3d bda8 8a3d 30e5 dbbb 2e58 8dbd
000001b0: 6a12 99bb 9ce3 03be 8dd0 86be 5210 67be
000001c0: 9f94 0ebb 0edc bcbb abf0 e9bd 4e1a d1bc
000001d0: 0ab2 8ebe 3757 073e d4e3 743e 66bb 843e
000001e0: 715b 2e3e b563 94bd 149b 073e 7a51 833e
000001f0: 3072 a23d c0d0 59be 0b6b 2cbd 2999 c83d
00000200: 65cd 1ebd 5511 e83d b0e2 0e3e f962 8c3d
00000210: dc51 393d 149a 273d 40c2 8a3c 7787 a93d
00000220: b4b6 8cbe 8528 79be b1b3 8b3e e4ff a9be
00000230: 6d4c f1bb 489b 2bbd 87d3 f4bd 8df2 76be
00000240: a578 9cbc ee3d 81bf a98b 8dbd 6245 ecbd
00000250: 89ea 013f 4a55 123e 50c9 2e3d c3c7 d63c
00000260: 5435 5dbd fb71 873e f237 a5be 550d 8a3d
00000270: b8c6 0c3f 3399 4d3f 42c3 f73e 4521 0cbf
00000280: 02be 31bf acae debe f214 6a3d 14c1 873e
00000290: c8bc 2f3d 7ae8 993d fa8a 94bb 69dc b0bd
000002a0: 89a6 b4bd 75e7 41be ce2d a63d 452a 0fbf
000002b0: 2397 89bf b379 72be ee3e 1d3f 76cf 103f
000002c0: 5980 a5be 5df8 e93e 56a2 073f 7093 743e
000002d0: ae9a 063c cfcb 90bf 4847 04be 6df4 4abf
000002e0: beef b93f 55e9 463f 3105 dd3d 497b 5dbe
000002f0: eacd f03b 6dc0 ec3c 5a60 c43e 8663 9cbe
00000300: c6a9 243f 7f47 3dbf 75f1 a1be f027 9ebb
00000310: 98eb 91be d03d 283d 19f5 64be 003b e33e
00000320: 8e98 fd3c 2652 1a3e 8263 623e 0fce 593e
00000330: f632 063d 60b4 5d3d 94d1 12be 8286 b4bd
00000340: 7987 e2bd d27a 033c e40b 88bd 5deb bcbd
00000350: c640 423d f7de 7d3d 25bb ef3d 3109 d8bc
00000360: b08b 75bd 45fe bcbe 7797 043d fa66 d9bd
00000370: 7ce6 133e 7cd6 27bd 7ec5 a2bb bd7e d1bb
00000380: fa35 b43b be39 c13d fc5a 87be 5159 f93d
00000390: 0c60 4a3e 4a5a 99bd 2ef6 3abe cea5 14bd
000003a0: 038d b5bc 3a36 813d 35bb 7c3d 99f3 5bbe
000003b0: 6bac 26be 5250 20be 3be2 d3bc 92b1 c93e
000003c0: 79b3 873d 8e48 66be eef6 b5be 00fc f7ba
000003d0: b002 e53b 4622 703d d2d3 19bd 1846 0a3c
000003e0: 162b 8dbd 3b12 853d 0e36 093d 3a74 0a3d
000003f0: 45e1 1e3d 588e 713d abdc 6abd 6d6e 71bd

encoder.2.bias f4 [32]
-0.7065305 -0.032849763 -0.0843628 0.033015892 -0.06732543 0.4963455 0.3286254 0.7876465
0.13702165 0.060623966 -1.5216999 -0.025864795 0.29896668 0.10951173 0.062518835 0.6447596
0.114536606 0.8183908 0.30166778 0.35118207 -0.13040024 0.13729818 -0.020373518 0.23356575
-1.5085129 0.19201861 0.33519307 0.41810277 -0.03197119 -0.2714359 -0.23684384 -0.32495257
00000000: 2fdf 34bf 798d 06bd 67c6 acbd ac3b 073d
00000010: eae1 89bd ff20 fe3e 9741 a83e 33a3 493f
00000020: 674f 0c3e d650 783d 10c7 c2bf 68e2 d3bc
00000030: 2912 993e b047 e03d e009 803d f70e 253f
00000040: 2b92 ea3d 0f82 513f 3374 9a3e 23ce b33e
00000050: a487 05be e597 0c3e 5de6 a6bc dc2b 6f3e
00000060: f316 c1bf 87a0 443e 6d9e ab3e 9111 d63e
00000070: 39f4 02bd a5f9 8abe 3187 72be 2f60 a6be

encoder.4.weight f4 [64, 32, 3, 3]
-0.0012633727 0.021078842 0.0009649972 0.010818814 -0.09509365 -0.06830895 -0.013976689 -0.07382431
0.07299491 0.029491296 -0.14164785 0.03181921 0.039360568 0.6632111 -0.019395271 -0.06932355
0.15225717 -0.14538091 0.16603237 0.02637039 0.35152566 -0.040404007 -0.6979314 0.37359402
0.28539395 -0.49875346 0.027793003 -0.027087703 0.026764086 0.07508183 -0.19893613 0.9946613
-0.24379072 -0.006804298 -0.2144118 0.2639843 0.05615995 -0.040150024 -0.043114662 0.04992213
-0.040125694 0.041611414 0.028551899 -0.038994536 0.006598698 -0.07373633 0.028791245 -0.08205409
0.04983789 0.04621527 -0.41036302 0.028982155 -0.55466557 -0.1506934 -0.028627424 0.73685515
-0.32039508 0.33837277 -1.5750312 0.32948005 -0.095430784 0.7652375 -0.059887365 -0.06745845
-0.080904305 0.07940706 0.023659889 0.3204066 -0.15992023 0.017800849 -0.11807003 -0.085849516
0.040754583 -0.19441539 -0.05654252 -0.022463946 0.48849514 -0.16188556 0.09224976 -0.22866875
0.004228963 0.08080219 0.005038838 0.18123949 0.21355885 -0.17381473 -1.058898 -0.059900384
0.22224711 -0.13801433 0.022504387 -0.0013795261 0.005074547 -0.037694532 0.05576172 -0.06953072
0.0212857 -0.05536537 0.12611407 0.0149611095 0.20197396 0.10658958 0.34224513 -0.4357445
0.15301165 -0.08869225 -0.049972963 0.08011286 -0.21980026 0.27085724 -0.12903531 -0.25673786
0.89705133 0.028273873 0.020784982 0.71369654 0.28144804 -0.13066508 -0.0013767746 -0.05157488
-0.005526581 -0.9439415 -0.15703645 -0.029302657 0.0996516 0.20774266 0.018320775 -0.28138432
0.22225066 0.12226102 0.022489855 0.17782994 0.08370803 0.28678417 -0.29106638 -0.0068580457
0.043508038 -0.01762353 0.017840264 -0.39294413 0.29161757 0.0019368452 0.22368388 -0.114134096
-0.17608629 -0.1919002 -0.31892318 0.25802225 -0.21524464 0.9089585 -0.15444663 0.24986345
0.16245684 0.05088538 0.041718952 0.086554304 -0.028411496 0.17910801 0.19452383 0.031482738
0.13177656 -0.06369876 -0.02011368 0.007581876 -0.06109227 -0.1588398 0.5072077 0.39297208
0.04936924 0.042706016 0.0009809735 0.08212245 0.47615913 0.1408343 -0.023866197 -0.22131586
0.042308874 -0.020169929 -0.3258351 -0.15108769 -0.087640524 -0.035920054 -0.09834463 -0.07411198
0.029028213 -0.17861113 0.001730086 0.17613971 -0.31263825 -0.04581623 0.038585067 0.005281196
-0.00320652 0.68940204 -0.08695841 -0.019272355 0.54373246 -0.17949027 0.029255217 -0.08418537
-0.063784614 0.029544253 0.0786677 0.07532047 -0.032008518 -0.041057166 0.14577061 0.4275641
-0.5479565 0.3659497 0.40477583 -0.33643007 0.009226067 0.08830713 -0.2810239 0.100498706
-0.039823063 -0.020830622 -0.037025858 0.0133149335 -0.028306292 0.08087767 -0.001118492 -0.015577646
-0.016006654 0.06505546 0.08762544 0.081949495 -0.25573483 -0.5767719 -0.08597118 -0.017322749
0.6519551 0.2425695 -0.09984231 0.048960995 -0.046214648 -0.02771331 -0.47304395 -0.27030864
0.15936153 -0.06083751 -0.47390231 -0.116571575 0.20237476 0.027724495 -0.18959622 0.26710466
-0.33436823 -0.0015107893 -0.3609345 0.42199475 -0.026955418 0.05740238 0.031628393 -0.0012954713
00000000: c197 a5ba 89ad ac3c def7 7c3a 6541 313c
00000010: 76c0 c2bd 90e5 8bbd 7cfe 64bc 3331 97bd
00000020: 5b7e 953d bb97 f13c 220c 11be dc54 023d
00000030: 8c38 213d 34c8 293f d5e2 9ebc 81f9 8dbd
00000040: 4ee9 1b3e bcde 14be 6404 2a3e b706 d83c
00000050: 2cfb b33e ac7e 25bd a2ab 32bf b747 bf3e
00000060: 281f 923e 9d5c ffbe 27ae e33c 08e7 ddbc
00000070: 5b40 db3c 81c4 993d eab5 4bbe 1fa2 7e3f
00000080: 46a4 79be 97f6 debb c48e 5bbe f328 873e
00000090: fa07 663d 5a74 24bd 0099 30bd 267b 4c3d
000000a0: d75a 24bd bb70 2a3d ace5 e93c bcb8 1fbd
000000b0: e439 d83b 1303 97bd 9edb eb3c fa0b a8bd
000000c0: d122 4c3d 394c 3d3d 1a1b d2be fc6b ed3c
000000d0: 90fe 0dbf 5f4f 1abe 0f84 eabc 8aa2 3c3f
000000e0: d30a a4be 323f ad3e 9f9a c9bf 9cb1 a83e
000000f0: 3771 c3bd 9be6 433f 744c 75bd a827 8abd
00000100: 28b1 a5bd 2ba0 a23d 62d2 c13c 550c a43e
00000110: 21c2 23be 16d3 913c b3ce f1bd dfd1 afbd
00000120: 47ee 263d d414 47be 2199 67bd 4f06 b8bc
00000130: 091c fa3e 54c5 25be 71ed bc3d 2428 6abe
00000140: 1d93 8a3b 9e7b a53d d61c a53b d896 393e
00000150: 2caf 5a3e 7dfc 31be f889 87bf 1b5a 75bd
00000160: bf94 633e a153 0dbe 1f5b b83c 37d1 b4ba
00000170: 6348 a63b 9565 1abd 6766 643d 1f66 8ebd
00000180: 595f ae3c ccc6 62bd 0c24 013e 711f 753c
00000190: 43d2 4e3e a34b da3d c13a af3e e719 dfbe
000001a0: 16af 1c3e 48a4 b5bd 73b0 4cbd 3612 a43d
000001b0: 5213 61be cdad 8a3e d521 04be 2573 83be
000001c0: 28a5 653f 9c9e e73c 4445 aa3c d1b4 363f
000001d0: f519 903e 11cd 05be e474 b4ba 2e40 53bd
000001e0: 5218 b5bb 26a6 71bf 2ace 20be 200c f0bc
000001f0: 2316 cc3d 7eba 543e 7315 963c 9b11 90be
00000200: ad95 633e fc63 fa3d a53c b83c 0d19 363e
00000210: 1e6f ab3d 60d5 923e a706 95be 75b9 e0bb
00000220: 7c35 323d 395f 90bc bf25 923c f92f c9be
00000230: e64e 953e bedd fd3a 630d 653e 23bf e9bd
00000240: f74f 34be 7c81 44be e649 a3be 7e1b 843e
00000250: 1769 5cbe 81b1 683f 4227 1ebe 34dc 7f3e
00000260: 165b 263e 306d 503d 7ee1 2a3d 6243 b13d
00000270: 3abf e8bc 1768 373e 4131 473e 0bf4 003d
00000280: 6ff0 063e 7f74 82bd 72c5 a4bc 6371 f83b
00000290: e33b 7abd e7a6 22be 5dd8 013f a333 c93e
000002a0: 6637 4a3d 81ec 2e3d 0294 803a d12f a83d
000002b0: 21cb f33e de36 103e 0b83 c3bc a0a0 62be
000002c0: 124c 2d3d 683b a5bc dcd3 a6be bbb6 1abe
000002d0: e07c b3bd e820 13bd e968 c9bd 06c8 97bd
000002e0: 93cc ed3c d6e5 36be 0ec4 e23a f85d 343e
000002f0: 1f12 a0be cda9 3bbd 600b 1e3d e20d ad3b
00000300: 7b24 52bb a77c 303f 4017 b2bd 0fe1 9dbc
00000310: 0d32 0b3f 4ccc 37be a3a8 ef3c 6169 acbd
00000320: 82a1 82bd ca06 f23c 881c a13d 9e41 9a3d
00000330: 5d1b 03bd 8f2b 28bd e444 153e afe9 da3e
00000340: e146 0cbf c25d bb3e c73e cf3e 9040 acbe
00000350: ee28 173c 5eda b43d 5de2 8fbe 44d2 cd3d
00000360: 821d 23bd fba4 aabc 6da8 17bd e126 5a3c
00000370: 99e2 e7bc 31a3 a53d 5d9a 92ba 6239 7fbc
00000380: 6320 83bc cc3b 853d f774 b33d 23d5 a73d
00000390: adef 82be 53a7 13bf a811 b0bd 70e8 8dbc
000003a0: 88e6 263f 2464 783e 207a ccbd 538b 483d
000003b0: 924b 3dbd 0607 e3bc d132 f2be e565 8abe
000003c0: ab2f 233e c130 79bd 53a3 f2be 14bd eebd
000003d0: 543b 4f3e 7b1e e33c 8325 42be f1c1 883e
000003e0: 5032 abbe ad05 c6ba 68cc b8be b20f d83e
000003f0: 9cd1 dcbc c21e 6b3d c68c 013d cecc a9ba

encoder.4.bias f4 [64]
0.33000922 -0.13206284 0.14749092 0.09295541 -0.0052317535 -0.048362046 -0.027955286 0.13112524
-0.028174398 0.422923 -0.055090487 -0.055462487 0.47875053 0.60379165 -0.3890063 0.5085429
0.26941025 -0.07685349 0.76380813 0.04717575 0.20783824 0.078027956 0.27368355 0.1328693
-0.06318381 -0.027875407 0.23851386 -0.043447986 -1.8174585 0.00088531274 0.13458091 0.015496457
0.050196297 0.027392205 -0.029892247 -0.010568251 0.36566728 0.4153829 0.17944187 0.5092858
-1.5090827 0.12944952 0.52039707 0.022781491 0.53530496 0.5088629 0.15711293 -0.14511442
0.7304593 -0.12340934 -0.072940804 0.22179615 -0.07583956 0.38962966 0.192099 0.2972856
0.35127062 0.21601985 0.15679975 0.08131673 0.30728984 0.3680792 -0.07599858 -0.24401157
00000000: f8f6 a83e 7b3b 07be dc07 173e 685f be3d
00000010: 216f abbb 4817 46bd 7c02 e5bc b245 063e
00000020: ffcd e6bc 5d89 d83e 90a6 61bd a22c 63bd
00000030: ca1e f53e 1792 1a3f d52b c7be de2f 023f
00000040: 24f0 893e 5d65 9dbd ee88 433f 5c3b 413d
00000050: 8cd3 543e 1fcd 9f3d 4020 8c3e e40e 083e
00000060: 8366 81bd f75a e4bc fa3c 743e 84f6 31bd
00000070: 7ba2 e8bf 5514 683a 94cf 093e dae4 7d3c
00000080: a29a 4d3d 9e65 e03c 96e0 f4bc 7526 2dbc
00000090: be38 bb3e 11ad d43e 9cbf 373e 8e60 023f
000000a0: 9f29 c1bf 6a8e 043e be38 053f 40a0 ba3c
000000b0: bf09 093f d744 023f 36e2 203e e098 14be
000000c0: 61ff 3a3f 09be fcbd fd61 95bd 881e 633e
000000d0: c551 9bbd 8a7d c73e 9ab5 443e d135 983e
000000e0: bed9 b33e 4f34 5d3e 1d90 203e 6389 a63d
000000f0: 1855 9d3e e074 bc3e 25a5 9bbd 2bde 79be

decoder.0.weight f4 [64, 32, 3, 3]
-0.0042470503 -0.098757975 -0.046133935 -0.19460626 -0.34299305 0.88545424 0.037154824 0.19121698
-0.065000445 0.029083766 0.007171348 -0.04616586 -0.01026249 0.32566723 -0.00038762213 -0.021450888
-0.24971934 0.015092821 0.03319645 -0.33347237 -0.2577284 -0.018383844 -0.0986402 0.5713485
-0.08854249 -0.24482778 0.3473366 0.023885092 0.024572246 -0.03689719 -0.41857198 0.76312083
-0.028545529 -0.13367902 -0.3261043 0.5094396 -0.0060147243 -0.19221503 0.12637722 -0.16217089
1.013619 -0.34908772 0.10925224 0.2424172 -0.276069 0.10554994 0.0037318068 0.015697388
0.0798981 0.03523366 -0.8169783 0.05930781 0.0336291 0.35118756 0.084004134 -0.38559726
0.05441894 0.2792807 -0.30964005 0.018586325 0.18436572 0.5897877 -0.2535948 0.0034681268
0.0064283907 0.3790284 0.006866964 -0.46761867 0.032088276 0.59147763 0.04734647 -0.550113
-0.0936657 -0.08130521 0.075296514 -0.10730912 -0.08173187 0.19465892 -2.2946231 0.02430112
0.4476963 0.2011543 0.033207998 0.005747947 0.009473362 -0.029316988 0.069716506 -0.07498924
-0.0055658873 -0.033402212 0.007646752 0.20748845 -0.024345726 -0.02363068 -0.038687814 -0.16046715
-0.038764488 -0.006725451 -0.028113423 0.068643816 -0.045952234 0.01298176 -0.0127923535 -0.2034657
-0.025381628 -0.10160189 0.3024652 -0.123260364 0.11801966 -0.2599113 0.41820076 -0.18267778
-0.029204113 0.5533379 0.36893433 0.41611314 0.24530718 -0.094054155 0.097406514 -0.1804693
0.19601898 -0.51949817 0.72167015 0.030865613 0.26328734 -0.12680769 0.010865859 -0.17279688
-0.097695105 0.07010949 -0.1907341 -0.27048612 -0.08709689 0.21126917 0.05796349 -0.08117763
-0.088414006 -0.15803991 -0.048426926 0.1623925 -0.0549837 -0.13683797 -0.21313193 1.2153286
-0.21361287 -0.022837475 -0.06528292 0.3145356 -0.02401379 -0.36982632 -0.2222319 -0.094689496
0.0018513389 -0.16410615 -0.09172579 0.10222754 0.07171514 0.0039241705 -0.36493227 0.034995347
0.1920331 -0.0010683745 -0.0014021441 -0.067474864 -0.036992352 -0.06689143 0.23367104 0.013253427
-0.015289097 0.056561355 0.10090183 -0.0008359587 0.025088336 0.009008849 -0.025277212 -0.30886832
-0.2104799 0.05857295 0.56682533 -0.041688688 0.063392386 -0.0005187459 0.037452713 -0.11740219
0.6062427 -0.16360947 -0.07455449 -0.74235904 0.02415472 0.05216837 -0.21632804 0.23482478
-0.035960205 -0.0074027246 -0.024021052 0.3570965 0.05250828 0.34336078 -0.36672938 -0.22102581
0.026251467 -0.10679872 -0.041439228 0.05514915 0.0027879337 0.031795554 -0.08721845 -0.0044630365
-0.5695051 -0.19157636 0.05735754 0.31841886 -0.1780682 0.11025033 -0.04831391 0.05222954
0.0814154 0.40537626 0.32259312 -0.06795102 0.061003372 0.088217214 0.20061316 -0.14529291
-0.77544266 0.004252703 0.03633723 -0.09437801 0.70046157 -0.6559957 -0.41075367 -0.24944462
0.78370386 0.102471106 0.042715672 -0.19097927 0.055259388 0.13984087 -0.6004464 -0.41520476
0.11452399 0.13226683 -0.019598983 -0.0019090021 -0.021039767 -0.08990064 -0.1924337 0.14670202
0.040712543 -0.26826146 0.21888173 0.32459912 0.07879516 -0.04249919 0.07341443 0.007576677
00000000: d72a 8bbb 9f41 cabd f0f6 3cbd dd46 47be
00000010: c99c afbe 21ad 623f a82f 183d 62ce 433e
00000020: f41e 85bd 1441 ee3c a1fd ea3b 6a18 3dbd
00000030: 0124 28bc dbbd a63e c339 cbb9 c6b9 afbc
00000040: 6db6 7fbe e147 773c 00f9 073d e4bc aabe
00000050: faf4 83be b799 96bc e003 cabd e543 123f
00000060: c455 b5bd 22b4 7abe 1ad6 b13e abaa c33c
00000070: bc4b c93c 8221 17bd 114f d6be e35b 433f
00000080: 50d8 e9bc 27e3 08be 25f7 a6be a26a 023f
00000090: 2a17 c5bb 04d4 44be 0869 013e 2010 26be
000000a0: 44be 813f a0bb b2be a3bf df3d 373c 783e
000000b0: ea58 8dbe 912a d83d 5491 743b cf97 803c
000000c0: 9da1 a33d 2c51 103d 7d25 51bf bfec 723d
000000d0: abbe 093d dbce b33e 5c0a ac3d 016d c5be
000000e0: 65e6 5e3d e1fd 8e3e 2489 9ebe 5942 983c
000000f0: 5eca 3c3e 54fc 163f 2dd7 81be 8349 633b
00000100: 40a5 d23b 0310 c23e 4504 e13b b76b efbe
00000110: ff6e 033d 146b 173f 5fee 413d 35d4 0cbf
00000120: cdd3 bfbd 5983 a6bd 0f35 9a3d e2c4 dbbd
00000130: 0a63 a7bd ab54 473e 1bdb 12c0 2413 c73c
00000140: 7338 e53e 65fb 4d3e 1c05 083d 4659 bc3b
00000150: 2936 1b3c 2e2a f0bc 87c7 8e3d f593 99bd
00000160: 0c62 b6bb c2d0 08bd 9b91 fa3b da77 543e
00000170: b070 c7bc 2195 c1bc 1d77 1ebd 8051 24be
00000180: 83c7 1ebd 2c61 dcbb 1f4e e6bc 2195 8c3d
00000190: 6938 3cbd 73b1 543c 0597 51bc 5059 50be
000001a0: 22ed cfbc a714 d0bd b8dc 9a3e ee6f fcbd
000001b0: 4bb4 f13d 1813 85be 691e d63e e20f 3bbe
000001c0: 773d efbc 8da7 0d3f f6e4 bc3e c80c d53e
000001d0: ce31 7b3e 779f c0bd 117d c73d f2cc 38be
000001e0: 33b9 483e d5fd 04bf 60bf 383f e2d9 fc3c
000001f0: 99cd 863e e0d9 01be b706 323c aaf1 30be
00000200: 5f14 c8bd 9095 8f3d cd4f 43be 287d 8abe
00000210: db5f b2bd f256 583e 206b 6d3d 7540 a6bd
00000220: 6712 b5bd 37d5 21be 505b 46bd 384a 263e
00000230: 9736 61bd 411f 0cbe 423f 5abe e38f 9b3f
00000240: 55bd 5abe a815 bbbc 0db3 85bd cf0a a13e
00000250: 91b8 c4bc e059 bdbe c290 63be 91ec c1bd
00000260: a0a8 f23a 710b 28be bbda bbbd ac5c d13d
00000270: 63df 923d 5496 803b 67d8 babe 4857 0f3d
00000280: 53a4 443e b308 8cba 26c8 b7ba 4330 8abd
00000290: 4b85 17bd 60fe 88bd 7647 6f3e e724 593c
000002a0: 1f7f 7abc e1ac 673d 9ea5 ce3d 3d24 5bba
000002b0: 0e86 cd3c da99 133c 2812 cfbc fd23 9ebe
000002c0: 0b88 57be 31ea 6f3d 771b 113f c2c1 2abd
000002d0: ded3 813d 73fc 07ba 0468 193d 8f70 f0bd
000002e0: b932 1b3f 3e89 27be 06b0 98bd 3e0b 3ebf
000002f0: 1fe0 c53c 80ae 553d 1985 5dbe e875 703e
00000300: 024b 13bd 8e92 f2bb ccc7 c4bc 5ad5 b63e
00000310: ec12 573d fccc af3e f4c3 bbbe 9754 62be
00000320: 510d d73c 4ab9 dabd 2ebc 29bd 13e4 613d
00000330: c4b5 363b 0e3c 023d 969f b2bd aa3e 92bb
00000340: 16cb 11bf 982c 44be bdef 6a3d cc07 a33e
00000350: 8357 36be edca e13d cee4 45bd a4ee 553d
00000360: 1ebd a63d 7a8d cf3e ed2a a53e e829 8bbd
00000370: acde 793d 3aab b43d 896d 4d3e aac7 14be
00000380: 6983 46bf 425a 8b3b 59d6 143d 4249 c1bd
00000390: 7351 333f 56ef 27bf 4e4e d2be 696e 7fbe
000003a0: d1a0 483f 5fdc d13d a1f6 2e3d 1290 43be
000003b0: ab57 623d 7232 0f3e dbb6 19bf b895 d4be
000003c0: 8e8b ea3d f570 073e 0c8e a0bc 7b37 faba
000003d0: 975b acbc d41d b8bd 570d 45be 0e39 163e
000003e0: 32c2 263d 9159 89be 8822 603e db31 a63e
000003f0: 5b5f a13d a113 2ebd 4e5a 963d c645 f83b

decoder.0.bias f4 [32]
0.23801343 1.3920927 2.6433172 1.0806447 0.9142673 0.30635852 0.5519398 3.7465374
1.8451539 -0.17436121 -1.5688226 -2.9111347 -3.593506 0.44973344 0.8885908 1.7980443
-1.6565316 0.5737947 0.7165557 -0.38379845 1.5561187 -0.6081713 3.4344854 1.7731762
0.6345851 2.5037732 -2.2126548 -2.3675084 -2.4357126 1.5466999 -0.43964058 1.4043617
00000000: cbb9 733e 1830 b23f 1c2c 2940 9152 8a3f
00000010: 6c0d 6a3f 06db 9c3e ed4b 0d3f 45c7 6f40
00000020: 012e ec3f bf8b 32be 2ecf c8bf 0850 3ac0
00000030: 01fc 65c0 7643 e63e b07a 633f 5126 e63f
00000040: 3a09 d4bf 36e4 123f 3270 373f 3b81 c4be
00000050: e62e c73f 1db1 1bbf 9cce 5b40 70f7 e23f
00000060: 2b74 223f d23d 2040 239c 0dc0 4285 17c0
00000070: b7e2 1bc0 43fa c53f 9218 e1be 20c2 b33f

decoder.2.weight f4 [32, 16, 3, 3]
0.0039818725 0.026682144 0.0071266494 0.015928794 0.2832344 0.24541016 0.018992368 0.22248875
0.26129162 -0.033326462 -0.13741754 -0.041431036 -0.04844316 -0.24298021 -0.1681759 -0.010890585
-0.14547798 -0.13900317 0.00026520633 -0.11812111 0.031114269 0.0038656606 -0.16876815 -0.062062755
0.041436642 -0.1794526 -0.10586082 -0.0050063836 -0.015332793 0.11645635 -0.0009562206 -0.18589991
-0.11493272 -0.011707765 -0.14770392 -0.24468799 -0.011995812 -0.034567595 -0.051676743 0.12735364
-0.024014182 -0.12968653 -0.025201384 0.2504838 -0.099359125 -0.010080367 0.3236332 0.030747937
0.23863338 0.90823907 0.92096084 0.056955583 0.6489977 0.054789037 0.08731377 -0.08005113
0.3263301 0.1644795 0.031760793 0.20626023 0.14187512 0.08800045 0.8910901 0.019880805
0.044333965 -0.01031944 -0.011928859 -0.0803057 0.20395961 -0.02936774 -0.012771606 -0.0019493004
0.058720484 -0.03388621 -0.07792197 -0.020998754 -0.058633417 -0.26389882 0.000115499526 -0.0004518336
-0.20654082 0.0070569776 -0.11395333 -0.059863597 0.05362835 0.008817097 -0.065092914 0.014971804
0.074301206 0.07517679 0.066308916 0.10763043 0.04221751 0.2414843 0.612712 0.33544862
0.22469708 0.55114394 0.33208966 -0.058577478 -0.13839968 0.06451643 -0.052381195 -0.1105983
0.08316466 -0.022768706 -0.047011208 0.043028288 0.003684349 0.069189966 0.06834851 0.05313337
-0.022106972 0.027445717 0.015064077 0.017665708 -0.03273013 0.050334144 0.077613935 0.05368667
0.044431992 0.044361986 -0.012133645 -0.006756234 -0.07657177 -0.0809773 0.054572463 0.07233879
0.028394008 -0.009992762 0.06548074 -0.09526334 0.09643067 -0.15762803 -0.08162453 0.038133293
0.0732655 0.18086155 0.13935213 0.69264746 0.6531033 0.10086827 0.45481506 0.65547085
0.037673432 0.113411285 0.10366525 -0.0026759147 0.2519326 0.25057873 -0.008498651 0.27914503
-0.1814502 0.08476242 0.11897095 0.12406932 0.10477748 0.4188635 0.5668222 -0.0144093465
0.6127081 -1.2025169 -0.071807496 -0.0033396771 -0.032524623 0.08165941 0.7598468 -0.4605103
0.10019753 0.3213823 0.1005886 0.08830567 0.35196576 -0.10357678 0.043677624 -0.28730816
0.50725305 -0.20804846 0.55406237 -0.23143855 0.11282185 0.32606536 0.16895537 -0.21803306
0.00770807 -0.12496989 -0.095944524 -0.3755096 3.253427 -0.036053404 -0.13153356 -0.23593216
-0.13347012 -0.34978014 0.47243017 0.04987684 -0.40841138 0.004049716 -0.105052754 -0.08123119
-0.04771555 0.051600613 0.04360375 0.16883485 -0.067006305 0.21698295 2.2388606 0.12465642
0.21063584 0.25123984 -0.03444549 0.3490472 -0.109505355 -0.06331562 -0.31452185 -0.17002237
0.17728673 0.003106147 -0.90196043 0.21190391 -0.060832344 -0.6768853 -0.23975033 -0.073243275
2.3893943 -0.12281136 0.018971762 -0.52780044 0.053822383 0.0281183 -0.31804776 -0.15918948
0.30621225 1.5388944 -0.12509827 -0.10583768 -0.03402185 -0.020042084 0.21824957 -0.5344804
-0.035558905 -0.31343222 0.7682459 -0.0068710307 0.08969071 0.104807094 0.06444065 0.30453664
0.44900754 -0.07850124 -0.08556735 0.9747432 -0.008644741 0.1553514 0.054541767 0.027441982
00000000: 5e7a 823b 8394 da3c ab86 e93b 1a7d 823c
00000010: 1904 913e cd4c 7b3e e295 9b3c 17d4 633e
00000020: 04c8 853e 5481 08bd 2fb7 0cbe 97b3 29bd
00000030: 566c 46bd cecf 78be 4e36 2cbe 6d6e 32bc
00000040: 2ef8 14be d956 0ebe 640b 8b39 7be9 f1bd
00000050: 5ae3 fe3c 0657 7d3b 8fd1 2cbe 8435 7ebd
00000060: 78b9 293d 6cc2 37be 8fcd d8bd 970c a4bb
00000070: 6536 7bbc ab80 ee3d e1aa 7aba 8c5c 3ebe
00000080: d961 ebbd edd1 3fbc b23f 17be 7d8f 7abe
00000090: 158a 44bc c096 0dbd feaa 53bd fe68 023e
000000a0: 64b9 c4bc 8ccc 04be 2273 cebc 6a3f 803e
000000b0: cc7c cbbd 2028 25bc 40b3 a53e 19e3 fb3c
000000c0: 4f5c 743e 5b82 683f 17c4 6b3f 424a 693d
000000d0: b724 263f 786a 603d 90d1 b23d d9f1 a3bd
000000e0: bd14 a73e 506d 283e 9b17 023d e235 533e
000000f0: b647 113e 9439 b43d 7b1e 643f 12dd a23c
00000100: 8897 353d de12 29bc 4371 43bc 5177 a4bd
00000110: cada 503e 9d94 f0bc 0040 51bc ab7f ffba
00000120: e484 703d 44cc 0abd 8e95 9fbd 9405 acbc
00000130: 9829 70bd bf1d 87be 5638 f238 14e4 ecb9
00000140: 707f 53be 383e e73b 5d60 e9bd 8833 75bd
00000150: 67a9 5b3d 9675 103c 6f4f 85bd 4c4c 753c
00000160: 3b2b 983d 4af6 993d f8cc 873d 586d dc3d
00000170: 45ec 2c3d a947 773e b2da 1c3f ecbf ab3e
00000180: fe16 663e c517 0d3f a807 aa3e f0ee 6fbd
00000190: a5b8 0dbe 3121 843d aa8d 56bd 5d81 e2bd
000001a0: 3c52 aa3d 7085 babc d38e 40bd 6e3e 303d
000001b0: 1e75 713b 78b3 8d3d 4efa 8b3d 60a2 593d
000001c0: ae19 b5bc d7d5 e03c 52cf 763c adb7 903c
000001d0: 0710 06bd 2d2b 4e3d 0ef4 9e3d 8ee6 5b3d
000001e0: 52fe 353d eab4 353d 32cc 46bc 6663 ddbb
000001f0: a9d1 9cbd 6dd7 a5bd 6087 5f3d 5c26 943d
00000200: 8d9a e83c aeb8 23bc c41a 863d 6d19 c3bd
00000210: 717d c53d 3e69 21be c32a a7bd a831 1c3d
00000220: 390c 963d c533 393e 53b2 0e3e 5851 313f
00000230: c731 273f 0694 ce3d 85dd e83e f0cc 273f
00000240: 754f 1a3d 2d44 e83d 724e d43d 665e 2fbb
00000250: 4ffd 803e db4b 803e ed3d 0bbc 19ec 8e3e
00000260: 15ce 39be eb97 ad3d 0ba7 f33d 0e18 fe3d
00000270: 9395 d63d 4775 d63e 421b 113f 2e15 6cbc
00000280: 70da 1c3f 13ec 99bf cf0f 93bd 7cde 5abb
00000290: 8a38 05bd 0c3d a73d 5285 423f 02c8 ebbe
000002a0: 5d34 cd3d 398c a43e 6501 ce3d 9ad9 b43d
000002b0: db34 b43e 1020 d4bd 4fe7 323d 0e1a 93be
000002c0: 56db 013f a80a 55be 08d7 0d3f 3afe 6cbe
000002d0: 240f e73d 0af2 a63e a302 2d3e 0f44 5fbe
000002e0: fa93 fc3b 37f0 ffbd 907e c4bd cb42 c0be
000002f0: 2638 5040 bcac 13bd bcb0 06be 3398 71be
00000300: 64ac 08be 6216 b3be 5ee2 f13e a84b 4c3d
00000310: 4c1b d1be 7bb3 843b e625 d7bd 8a5c a6bd
00000320: 6171 43bd 2a5b 533d d999 323d 0be3 2c3e
00000330: 9a3a 89bd c730 5e3e 7e49 0f40 dd4b ff3d
00000340: ecb0 573e 82a2 803e b716 0dbd 51b6 b23e
00000350: 5844 e0bd 9fab 81bd 0209 a1be 581a 2ebe
00000360: a78a 353e 8090 4b3b e1e6 66bf 57fd 583e
00000370: 562b 79bd 5b48 2dbf 1c81 75be 9200 96bd
00000380: d6eb 1840 8684 fbbd ab6a 9b3c ee1d 07bf
00000390: dc74 5c3d 5958 e63c 28d7 a2be 9102 23be
000003a0: dac7 9c3e 7efa c43f c319 00be 6dc1 d8bd
000003b0: 7f5a 0bbd 4c2f a4bc d17c 5f3e b5d3 08bf
000003c0: 37a6 11bd 307a a0be c3ab 443f 6226 e1bb
000003d0: c3af b73d 1aa5 d63d 76f9 833d 3aec 9b3e
000003e0: 51e4 e53e 42c5 a0bd ef3d afbd c588 793f
000003f0: aca2 0dbc 7014 1f3e 3067 5f3d 02ce e03c

decoder.2.bias f4 [16]
1.6574842 -1.218829 -0.6006108 -0.32606563 0.4960613 2.4936304 0.9541729 0.046373386
-0.28661194 -1.5651143 0.99065834 1.645228 -4.921907 0.4687952 0.97813445 -0.5401728
00000000: 7128 d43f 9702 9cbf a1c1 19bf 13f2 a6be
00000010: bffb fd3e a497 1f40 ad44 743f 05f2 3d3d
00000020: cdbe 92be aa55 c8bf c99b 7d3f d596 d23f
00000030: 4380 9dc0 ed05 f03e 0567 7a3f c448 0abf

decoder.4.weight f4 [16, 3, 3, 3]
-0.0027049864 0.022395782 0.06669771 0.01219559 0.042688556 0.07431052 0.008957588 0.014751255
0.021339042 0.002103063 -0.08509966 -0.06622159 -0.027168663 -0.220265 -0.18932554 -0.036392853
-0.15637745 -0.12846029 0.0035957042 -0.033179995 -0.020671474 0.045547616 0.11399766 0.07613905
0.043486483 0.13546185 0.08977364 0.021426348 -0.043476716 -0.077857845 -0.009245549 -0.22601692
-0.27044886 -0.04557777 -0.23974267 -0.23801471 0.01511748 -0.018334243 -0.0654438 -0.018084338
-0.1435662 -0.21259436 -0.06383002 -0.20843436 -0.20084223 0.0050062933 -0.030425956 -0.048398055
-0.03414423 -0.13534415 -0.14717723 -0.059753843 -0.16166627 -0.12621568 -0.0031488147 -0.07162361
0.050492857 -0.004858284 -0.17534043 0.15292381 -0.029385947 -0.18903147 0.060216963 0.020465542
-0.028155273 0.069873326 0.025661135 -0.08625998 0.2034884 -0.034752164 -0.16536836 0.08092261
0.014550344 -0.0074170986 0.05528267 0.025465908 0.004717796 0.17785431 -0.019460293 -0.059151873
0.08683728 -0.0056501203 -0.08372865 0.001576137 -0.07252824 -0.28577867 -0.1270264 0.039273042
0.12145463 0.08759524 0.0063469973 -0.033978414 0.0019972976 -0.06009084 -0.19333522 -0.10205894
0.085550524 0.18771009 0.123082384 -0.001213918 -0.04274754 0.004789622 -0.04408412 -0.12510891
-0.032609545 0.09173005 0.17820808 0.116224654 0.015643934 0.06440644 0.015708284 0.0044469708
0.08272968 0.021198384 -0.020288603 -0.00964976 -0.030609306 0.026696922 0.056095842 0.0245452
0.035025828 0.07661162 0.039746035 0.010677183 0.022472866 0.005488527 0.020958928 0.03605222
0.00893153 0.027288934 0.054528754 0.01756454 0.011308509 0.016151313 0.0020502186 -0.008892843
0.017944992 -0.0030180824 0.0020523134 0.17851299 0.0027582487 0.026432518 0.2151348 0.03465581
-0.002334992 -0.0024441958 -0.0050989706 -0.002223264 0.016921893 -0.011730279 0.0069142445 0.027844915
0.0005748058 -0.011296193 -0.008490126 -0.0112099815 0.0008325826 0.033853903 -0.016256478 0.018108966
0.056418803 0.0033492239 -0.008816894 0.0057857614 -0.0012687277 0.000786842 0.12204829 -0.0028350642
0.029026434 0.17841052 0.034408733 -0.003616874 -0.0056664115 -0.0026374268 -0.0031352981 0.0063456884
-0.009346474 0.0067164605 0.024355741 0.002177137 -0.0074103973 -0.005544295 -0.0069851438 0.0039034889
0.027910968 -0.009881922 0.016944684 0.047851097 0.0042938385 -0.018521136 -0.042371493 0.02521521
0.029902237 0.028060127 0.007450074 0.034829643 0.004106644 -0.108930506 -0.051956784 -0.04804714
0.037404593 0.011424546 0.045285217 0.05463337 0.05527356 0.05647605 -0.050030977 -0.047567513
-0.047843628 0.037947938 -0.005432212 -0.020487987 0.034328956 0.02935663 -0.007906791 -0.03561304
-0.0017733134 -0.03172842 -0.021595705 -0.013522213 -0.042465307 0.059820123 -0.0038512864 0.028392967
0.18342088 -0.006546589 -0.013481646 0.008464195 -3.66835e-05 0.043028843 0.075524725 0.013077509
0.06475998 0.10029413 -0.007622759 -0.021986121 -0.0038520352 -0.0016737903 0.040093865 0.084643394
0.011623999 0.080420345 0.13283207 0.008826429 -0.014088032 -0.011826189 -0.0027459073 -0.037322316
0.04094064 -0.006629274 0.013653269 0.16588338 -0.0037613353 -0.0058353953 0.0055342247 -0.0021985273
00000000: 2446 31bb 5c77 b73c cf98 883d 03d0 473c
00000010: 32da 2e3d 1d30 983d d9c2 123c 3faf 713c
00000020: 37cf ae3c 8bd3 093b bb48 aebd 2f9f 87bd
00000030: d190 debc 268d 61be 8ede 41be ac10 15bd
00000040: 6921 20be 188b 03be e8a5 6b3b bfe7 07bd
00000050: 3957 a9bc 2390 3a3d 9b77 e93d caee 9b3d
00000060: e21e 323d 83b6 0a3e 3edb b73d 4f86 af3c
00000070: a414 32bd ef73 9fbd a57a 17bc fb70 67be
00000080: 4678 8abe c1af 3abd 1a7f 75be 21ba 73be
00000090: 4faf 773c b231 96bc 6607 86bd 9b25 94bc
000000a0: 0503 13be 56b2 59be 50b9 82bd d16f 55be
000000b0: 96a9 4dbe d50b a43b db3f f9bc 0a3d 46bd
000000c0: d2da 0bbd a897 0abe a1b5 16be 72c0 74bd
000000d0: d88b 25be af3e 01be 585c 4ebb 66af 92bd
000000e0: 99d1 4e3d 3d32 9fbb 718c 33be 0f98 1c3e
000000f0: ccba f0bc 7791 41be 10a6 763d 5aa7 a73c
00000100: e3a5 e6bc bf19 8f3d 4d37 d23c 13a9 b0bd
00000110: 435f 503e 4958 0ebd 5356 29be c1ba a53d
00000120: 9164 6e3c 220b f3bb 1570 623d e19d d03c
00000130: be97 9a3b 711f 363e 316b 9fbc 3c49 72bd
00000140: bed7 b13d a524 b9bb ed79 abbd 6296 ce3a
00000150: b089 94bd 9551 92be 3513 02be c5dc 203d
00000160: 34bd f83d 2265 b33d 79fa cf3b f32c 0bbd
00000170: 18e5 023b d021 76bd abf9 45be 4704 d1bd
00000180: 1d35 af3d 1337 403e 9e12 fc3d 541c 9fba
00000190: 0b18 2fbd 43f2 9c3b 8d91 34bd 8d1c 00be
000001a0: 9691 05bd f7dc bb3d 2e7c 363e 3107 ee3d
000001b0: b527 803c 86e7 833d a9ae 803c e5b7 913b
000001c0: 2e6e a93d 3ca8 ad3c 4934 a6bc 071a 1ebc
000001d0: 5ec0 fabc 81b3 da3c c1c4 653d 0413 c93c
000001e0: 3e77 0f3d 8ee6 9c3d bdcc 223d 5aef 2e3c
000001f0: 0419 b83c 1ad9 b33b 0fb2 ab3c 7eab 133d
00000200: 8d55 123c 0b8d df3c 8b59 5f3d 83e3 8f3c
00000210: 5347 393c c24f 843c f65c 063b 49b3 11bc
00000220: 6001 933c 05cb 45bb 1b80 063b 1ccc 363e
00000230: bcc3 343b 0289 d83c 4c4c 5c3e 40f3 0d3d
00000240: aa06 19bb cd2e 20bb 4415 a7bb 2eb4 11bb
00000250: c89f 8a3c 5b30 40bc e390 e23b 051b e43c
00000260: 90ae 163a ab13 39bc 2b1a 0bbc 12aa 37bc
00000270: ac41 5a3a 64aa 0a3d 4e2c 85bc 4159 943c
00000280: 6717 673d a77e 5b3b bc74 10bc 7c96 bd3b
00000290: 704b a6ba 1344 4e3a 74f4 f93d 7ccc 39bb
000002a0: d8c8 ed3c 3fb1 363e 2cf0 0c3d 1409 6dbb
000002b0: 4ead b9bb aed8 2cbb 9379 4dbb 7eef cf3b
000002c0: f421 19bc c115 dc3b b185 c73c 4cae 0e3b
000002d0: ebd2 f2bb ebac b5bb a2e3 e4bb add1 7f3b
000002e0: 8ba5 e43c c9e7 21bc 94cf 8a3c 83ff 433d
000002f0: 54b3 8c3b a3b9 97bc bb8d 2dbd 2190 ce3c
00000300: 89f5 f43c 5ade e53c c01f f43b 87a9 0e3d
00000310: 0791 863b f516 dfbd a3d0 54bd 14cd 44bd
00000320: 8f35 193d 052e 3b3c fe7c 393d 3ec7 5f3d
00000330: 8766 623d 6e53 673d 48ed 4cbd 27d6 42bd
00000340: aef7 43bd 4c6f 1b3d b200 b2bb 6cd6 a7bc
00000350: 859c 0c3d 517d f03c 7c8b 01bc fbde 11bd
00000360: 866e e8ba a9f5 01bd 7ae9 b0bc 468c 5dbc
00000370: 1af0 2dbd f205 753d dd65 7cbb 5e98 e83c
00000380: afd2 3b3e c584 d6bb 1fe2 5cbc 68ad 0a3c
00000390: 9cdc 19b8 033f 303d b5ac 9a3d 0c43 563c
000003a0: e1a0 843d 0267 cd3d 56c8 f9bb 3d1c b4bc
000003b0: 6d72 7cbb 1563 dbba 7739 243d 8459 ad3d
000003c0: 9672 3e3c 6cb3 a43d 2105 083e ba9c 103c
000003d0: 7dd1 66bc a2c2 41bc aef4 33bb 49df 18bd
000003e0: 5fb1 273d 623a d9bb f6b1 5f3c 55dd 293e
000003f0: bc80 76bb d836 bfbb 7158 b53b 2b15 10bb

decoder.4.bias f4 [3]
2.5532112 0.6882725 0.23868774
00000000: d067 2340 a032 303f 8f6a 743e
